MEG_CNN_model_best.pth (torch, 999906 bytes, 17 tensors)

block1.0.weight f4 [8, 1, 1, 64]
0.034820314 0.09161306 0.07876556 -0.04350683 -0.07020974 -0.14424072 0.025796838 -0.040450267
0.17804211 0.119897634 0.061657976 -0.0554184 0.11995237 0.10803598 0.117450155 0.09134506
0.037726063 0.02195299 0.21244802 0.057259303 0.01221386 0.04298696 0.1075975 0.040229842
0.015812047 0.18403333 0.17020002 0.029327778 0.13601795 0.018334514 0.057551708 0.08363395
-0.088628106 0.047596585 0.05061246 0.19189563 0.06692763 0.09662311 0.11207086 0.07788893
0.084487185 0.09378848 0.11399541 0.14350753 0.19737558 0.115679905 0.17529897 0.15598512
0.08404079 0.123711795 0.07462453 0.1840414 0.19354953 0.06963222 0.0903051 0.20666851
0.20531067 0.11576872 0.058446918 0.13839915 0.057776637 0.22707993 0.20270404 0.11667755
-0.045766294 0.04289105 -0.17469117 -0.12118349 0.014270562 0.11460856 0.026666705 -0.0789656
0.07243413 0.04900923 -0.019289907 -0.06612931 -0.09753354 -0.014527659 -0.016838785 -0.09002451
0.05674126 -0.0794659 -0.0071950965 0.055446222 0.034615725 -0.007105255 -0.043410506 0.013275265
-0.026118774 0.10589566 0.10818663 -0.0074573816 0.02618317 0.09150966 0.1426302 0.19926472
0.07252317 0.17669082 -0.007137347 0.11663387 0.10930803 0.15172106 0.23254097 0.21994996
0.19589438 0.16993946 0.17141855 0.13947947 0.15942322 0.15484716 0.25662085 0.18765049
0.19484757 0.15079193 0.3042029 0.2722312 0.1261657 0.2134273 0.1449515 0.00983149
0.19789691 -0.013575972 0.15863895 0.16071726 0.11262808 0.17937718 0.121462636 0.17374285
0.04726782 -0.042707767 -0.050836384 -0.05277399 -0.053380914 0.13978466 0.055703025 -0.0013528774
0.0926313 0.07210288 -0.04283123 -0.06765853 0.06792714 -0.025994731 0.08170298 0.019411031
-0.08810126 0.02913227 0.07032705 0.13202329 0.16233104 0.09702567 0.03300859 0.067263626
0.11182725 0.037678555 0.10008935 0.08702074 0.077033654 0.19399993 -0.01035438 0.22211175
0.14369522 0.14137991 0.11358135 0.2682177 0.1383471 0.08963139 0.25932115 0.19961457
0.10365526 0.13784693 0.16822246 0.21147747 0.15705484 0.19719742 0.27573103 0.22084647
0.24078436 0.07323074 0.06449948 0.18291631 0.12397394 0.20690246 0.26812887 0.052905906
0.07972722 0.06810397 0.07813861 -0.034217246 0.11606208 0.060816877 0.06065356 -0.035434365
0.16882677 0.18235897 -0.0010227254 0.107267134 0.15489843 0.14205821 0.018335987 0.16680293
0.0005193053 0.099579096 -0.040667806 0.034029596 0.028537113 0.087698296 0.015146446 0.099194065
0.081127755 0.0136285145 0.061859254 -0.11754919 0.06488406 -0.07018723 -0.08536349 0.062540375
-0.0098756645 -0.09045413 -0.15078416 -0.034784652 0.0952909 -0.067820385 -0.081229374 0.08153685
0.13456959 0.03389536 0.105601706 0.07512039 -0.06416968 0.1770044 0.037665863 0.1092008
0.00043084487 0.024956973 0.026900634 0.11652897 0.07346494 0.1383138 0.17485099 0.1379046
0.2698437 0.09852813 0.117598236 0.2128511 0.26841712 0.26839748 0.09180695 0.16040707
0.116980374 0.24385886 0.19194546 0.16760561 0.17950076 0.17507358 0.2985081 0.0948566
00000000: bf9f 0e3d a19f bb3d d74f a13d 3834 32bd
00000010: 20ca 8fbd d7b3 13be e453 d33c 2eaf 25bd
00000020: ac50 363e e48c f53d 138d 7c3d 67fe 62bd
00000030: 97a9 f53d f841 dd3d b589 f03d 1e13 bb3d
00000040: a586 1a3d c2d6 b33c f98b 593e bb88 6a3d
00000050: a41c 483c 1813 303d 145c dc3d 0cc8 243d
00000060: 4488 813c 3c73 3c3e ea48 2e3e cf40 f03c
00000070: 4a48 0b3e 4332 963c 57bb 6b3d 4748 ab3d
00000080: a782 b5bd a3f4 423d 034f 4f3d 4a80 443e
00000090: 5a11 893d 56e2 c53d 6885 e53d 3b84 9f3d
000000a0: 9e07 ad3d 2d14 c03d 6d76 e93d a3f3 123e
000000b0: d31c 4a3e 96e9 ec3d 9381 333e 90ba 1f3e
000000c0: 941d ac3d 9c5c fd3d bfd4 983d 5975 3c3e
000000d0: d931 463e 569b 8e3d e1f1 b83d e9a0 533e
000000e0: f63c 523e 2718 ed3d 0966 6f3d 82b8 0d3e
000000f0: 32a7 6c3d a487 683e a691 4f3e a4f4 ee3d
00000100: 7075 3bbd 87ae 2f3d 3ee2 32be 0d2f f8bd
00000110: 13cf 693c e5b7 ea3d 2274 da3c b7b8 a1bd
00000120: 5858 943d e7bd 483d de05 9ebc ce6e 87bd
00000130: aabf c7bd 6b05 6ebc 7ef1 89bc c55e b8bd
00000140: 8669 683d 05bf a2bd d8c4 ebbb 941b 633d
00000150: 38c9 0d3d 33d3 e8bb 37cf 31bd 7f80 593c
00000160: 0af7 d5bc d3df d83d f490 dd3d 0d5d f4bb
00000170: 167e d63c 6b69 bb3d a70d 123e 0d0c 4c3e
00000180: 0787 943d 70ee 343e 68e0 e9bb bddd ee3d
00000190: e3dc df3d c45c 1b3e 381f 6e3e 903a 613e
000001a0: 8998 483e 9c04 2e3e 5888 2f3e b5d3 0e3e
000001b0: d73f 233e 4190 1e3e cf63 833e 7327 403e
000001c0: 1f86 473e 3369 1a3e 7cc0 9b3e e361 8b3e
000001d0: 9531 013e b08c 5a3e 2b6e 143e 4214 213c
000001e0: 7da5 4a3e c16d 5ebc 4072 223e 1193 243e
000001f0: 8da9 e63d a7ae 373e 67c1 f83d a5e9 313e
00000200: e79b 413d 57ee 2ebd d039 50bd 8a29 58bd
00000210: f2a5 5abd b623 0f3e db28 643d 0853 b1ba
00000220: 7bb5 bd3d adaa 933d cd6f 2fbd 8e90 8abd
00000230: 621d 8b3d e7f2 d4bc e453 a73d e203 9f3c
00000240: 6f6e b4bd cca6 ee3c a107 903d 1d31 073e
00000250: 1c3a 263e 65b5 c63d 0434 073d 83c1 893d
00000260: af05 e53d d454 1a3d a5fb cc3d ee37 b23d
00000270: d2c3 9d3d eba7 463e 6ba5 29bc 4371 633e
00000280: d724 133e e5c5 103e 579d e83d d553 893e
00000290: ddaa 0d3e aa90 b73d bec5 843e c367 4c3e
000002a0: 3549 d43d bf27 0d3e 8242 2c3e 8d8d 583e
000002b0: fcd2 203e 1fee 493e 9e2c 8d3e 9425 623e
000002c0: 2d90 763e 00fa 953d 4e18 843d 6a4e 3b3e
000002d0: 0de6 fd3d 3dde 533e 3048 893e ddb3 583d
000002e0: 0648 a33d 187a 8b3d 2307 a03d 6227 0cbd
000002f0: f5b1 ed3d 1e1b 793d de6f 783d a023 11bd
00000300: ede0 2c3e 4fbc 3a3e f80c 86ba dfae db3d
00000310: b29d 1e3e b577 113e 5a35 963c 63ce 2a3e
00000320: fd21 083a 20f0 cb3d 4993 26bd 9e62 0b3d
00000330: aac6 e93c 2a9b b33d cd28 783c 4226 cb3d
00000340: 4f26 a63d 224a 5f3c 2160 7d3d a1bd f0bd
00000350: efe1 843d 53be 8fbd 0ed3 aebd 2b15 803d
00000360: 8acd 21bc 0440 b9bd 2a67 1abe 5a7a 0ebd
00000370: e027 c33d 6ae5 8abd 965b a6bd cbfc a63d
00000380: 9ccc 093e dcd5 0a3d b545 d83d b8d8 993d
00000390: 656b 83bd a440 353e 8547 1a3d aba4 df3d
000003a0: 05e3 e139 9172 cc3c b85e dc3c bea6 ee3d
000003b0: c974 963d 22a2 0d3e 230c 333e dd36 0d3e
000003c0: f428 8a3e 1ec9 c93d 58d7 f03d a4f5 593e
000003d0: f86d 893e 656b 893e 4805 bc3d c041 243e
000003e0: 6893 ef3d 23b6 793e 5a8d 443e cea0 2b3e
000003f0: 0ccf 373e 7d46 333e 0ed6 983e 2d44 c23d

block1.1.weight f4 [8]
1.0038873 1.0004749 1.0035906 1.0057645 1.002529 0.99231356 0.99084115 1.0004469
00000000: 617f 803f 900f 803f a875 803f e4bc 803f
00000010: df52 803f 4308 7e3f c4a7 7d3f a50e 803f

block1.1.bias f4 [8]
0.0008582938 -0.004816704 0.0007508699 -0.003695506 0.0042447075 0.0076597007 0.01500327 0.00052863907
00000000: 1fff 603a 71d5 9dbb 07d6 443a 4d30 72bb
00000010: 3017 8b3b 3afe fa3b 46d0 753c 5e94 0a3a

block1.1.running_mean f4 [8]
-0.0010272092 0.00024210976 -0.0005648188 -0.001420165 0.00022556601 -0.0023454835 -0.0026481822 0.0011558665
00000000: 6ca3 86ba d8de 7d39 5910 14ba d424 baba
00000010: ea85 6c39 afb6 19bb 208d 2dbb 7280 973a

block1.1.running_var f4 [8]
4.951765 6.9316134 6.848139 5.025078 6.5178766 6.916659 5.9544034 4.0343194
00000000: dc74 9e40 c7cf dd40 f423 db40 70cd a040
00000010: 7292 d040 4555 dd40 798a be40 2519 8140

block1.2.weight f4 [16, 1, 271, 1]
0.07239197 -0.0054615466 0.08050949 -0.046720196 0.0023638618 -0.039844304 0.14603892 0.084859334
0.12713116 0.036944374 0.082204565 0.06684413 0.002785264 -0.010725408 -0.051989637 -0.03174059
0.27371925 0.123051785 0.014810851 -0.02568551 0.045050573 0.04523756 0.022159982 0.04873323
0.041280817 0.14544253 0.016339658 0.027297694 -0.08225136 -0.004947704 -0.07957136 0.033914577
-0.11769777 -0.06242915 0.056998096 -0.05210776 -0.10543553 -0.09213093 -0.04221938 -0.07408559
-0.12708661 0.028027495 -0.05079549 -0.12726426 -0.1113887 -0.09441153 -0.11225199 0.027211431
-0.039794967 0.050017484 -0.023183081 0.03463565 -0.091092974 0.045545135 0.02677539 0.10872018
0.055358406 -0.11152152 -0.03783783 0.06337058 0.006442436 -0.1661079 -0.19541232 -0.17472576
-0.058815755 -0.13659965 -0.19978957 -0.19181727 0.1379167 -0.003228659 -0.08671589 -0.19687127
0.032618 0.0815556 -0.011753631 0.036966536 -0.062029935 0.07706749 0.06725038 -0.13567944
0.1604378 0.058581226 -0.083256826 -0.2030957 0.018619914 0.026301343 -0.02918871 -0.0128005985
0.020258123 0.024450244 0.1325706 0.043349385 0.009337388 -0.019958602 0.041287493 0.0578268
0.14833382 -0.18899293 -0.045319743 0.04931198 0.048564654 0.118742205 -0.010154995 -0.1259199
-0.13156652 -0.074604236 -0.038335446 0.0627676 0.044035997 -0.06933703 -0.03549768 -0.0838975
-0.0040425174 0.025991065 0.0015754906 0.09246814 0.005724177 -0.10336931 0.04074221 0.06831703
0.032069527 -0.052718204 0.08562096 -0.0614452 -0.012853625 0.13380335 0.18242916 0.17384645
0.072999164 0.06824171 0.1011625 0.120176144 0.1498578 0.13516755 0.17115453 0.02438006
0.06629099 0.010444363 0.12767954 0.117288925 0.1663939 0.041039962 -0.024716103 0.10712056
-0.030965969 0.21577395 -0.19596364 0.27008966 0.060853183 0.028960606 -0.24918847 -0.19987541
-0.009824188 -0.10349352 -0.041005984 -0.032449704 -0.035799418 -0.014166882 0.022355221 -0.057415236
-0.05060238 0.00010842376 -0.10839514 -0.041703 -0.1322075 -0.11670797 -0.00514983 -0.054378737
0.081537336 -0.092456006 -0.04733366 0.0063115032 0.105361424 0.008340665 0.03957164 0.0229696
-0.044531744 0.028317595 -0.025118766 -0.099035524 0.04412795 0.041615568 0.076315835 0.09774836
0.07831849 -0.014874628 -0.0525481 -0.03680115 -0.1932906 -0.006852685 0.045284357 -0.04700795
-0.041921258 0.07146558 0.1279705 0.054894798 0.077551685 0.23674686 0.13297226 0.093313925
0.10130222 0.13670099 0.17080595 0.06422847 -0.1254994 -0.31483936 -0.041648153 -0.27866223
-0.35066015 0.011258115 -0.20712937 -0.25551856 -0.30838963 -0.26076594 -0.08051037 -0.19022599
-0.23039035 -0.32964593 -0.20664892 0.04447061 0.023889527 -0.023780568 -0.2609531 -0.2581786
-0.40884057 -0.20186645 -0.015298364 -0.1337156 -0.13278334 -0.21344689 -0.19531474 -0.15635045
0.0013519514 -0.042670157 -0.17651889 -0.1316934 -0.15648483 -0.12356485 -0.10081876 -0.032657824
0.033786092 -0.064196415 -0.031994503 -0.044550624 0.030760473 -0.0093340995 0.0230874 0.07458912
-0.00218853 0.0014435963 0.062188677 0.06898924 0.14950754 0.104977675 0.022439694 0.0012331883
00000000: 3e42 943d c6f6 b2bb 29e2 a43d ad5d 3fbd
00000010: 05eb 1a3b c833 23bd 3a8b 153e bbca ad3d
00000020: ac2e 023e fc52 173d de5a a83d 93e5 883d
00000030: fa88 363b 9fb9 2fbc 16f3 54bd 6c02 02bd
00000040: ee24 8c3e 9302 fc3d 36a9 723c 6b6a d2bc
00000050: f386 383d 054b 393d da88 b53c 7f9c 473d
00000060: 1316 293d e3ee 143e bfda 853c 6a9f df3c
00000070: 6773 a8bd 5920 a2bb 4ff6 a2bd 03ea 0a3d
00000080: 870b f1bd b5b5 7fbd d676 693d f26e 55bd
00000090: 95ee d7bd 24af bcbd 3bee 2cbd 30ba 97bd
000000a0: fe22 02be eb99 e53c ef0e 50bd 9051 02be
000000b0: c21f e4bd d55a c1bd 5fe4 e5bd 82ea de3c
000000c0: 0c00 23bd 22df 4c3d 72ea bdbc 1dde 0d3d
000000d0: f48e babd 898d 3a3d 1058 db3c b0a8 de3d
000000e0: 7fbf 623d 6565 e4bd d7fb 1abd 6fc8 813d
000000f0: 121b d33b 3018 2abe 2b1a 48be 4feb 32be
00000100: cae8 70bd c7e0 0bbe a395 4cbe bf6b 44be
00000110: 093a 0d3e e997 53bb 1a98 b1bd 9f98 49be
00000120: 749a 053d 9f06 a73d 4d92 40bc 396a 173d
00000130: 1a13 7ebd 8fd5 9d3d 91ba 893d 8def 0abe
00000140: cf49 243e def2 6f3d 8e82 aabd 52f8 4fbe
00000150: ca88 983c ea75 d73c 291d efbc 9ab9 51bc
00000160: 5df4 a53c e14b c83c 96c0 073e 208f 313d
00000170: d8fb 183c 3980 a3bc 131d 293d cbdb 6c3d
00000180: d2e4 173e 5d87 41be 32a1 39bd 5cfb 493d
00000190: bbeb 463d 1d2f f33d 2361 26bc 25f1 00be
000001a0: 60b9 06be 1bca 98bd a105 1dbd 4d8c 803d
000001b0: 175f 343d 9300 8ebd 0466 11bd 74d2 abbd
000001c0: 1877 84bb 37eb d43c b180 ce3a f05f bd3d
000001d0: e191 bb3b 4ab3 d3bd 4ee1 263d cde9 8b3d
000001e0: 565b 033d 0bef 57bd 0b5a af3d f6ad 7bbd
000001f0: 0398 52bc bf03 093e b6ce 3a3e ce04 323e
00000200: 9680 953d 4fc2 8b3d 492e cf3d e91e f63d
00000210: 5374 193e 5d69 0a3e 2243 2f3e b1b8 c73c
00000220: 92c3 873d d51e 2b3c 6dbe 023e 2d35 f03d
00000230: 2a63 2a3e 8519 283d 6d79 cabc 0662 db3d
00000240: 58ac fdbc d9f3 5c3e b1aa 48be 3149 8a3e
00000250: 3041 793d cb3e ed3c 432b 7fbe 24ac 4cbe
00000260: a2f5 20bc 69f4 d3bd e4f5 27bd fbe9 04bd
00000270: 69a2 12bd 361c 68bc 4c22 b73c 3d2c 6bbd
00000280: 7144 4fbd 9061 e338 45fe ddbd c4d0 2abd
00000290: 6761 07be 9704 efbd e8bf a8bb 3dbc 5ebd
000002a0: 0cfd a63d 9359 bdbd f1e0 41bd bad0 ce3b
000002b0: bbc7 d73d 49a7 083c df15 223d be2a bc3c
000002c0: eb66 36bd 4dfa e73c dfc5 cdbc 23d3 cabd
000002d0: 82bf 343d 1675 2a3d 7a4b 9c3d 4b30 c83d
000002e0: 7265 a03d b6b4 73bc ad3c 57bd cdbc 16bd
000002f0: f9ed 45be 7d8c e0bb 177c 393d 688b 40bd
00000300: a0b5 2bbd 8c5c 923d b30a 033e 5ed9 603d
00000310: 6bd3 9e3d c56d 723e e129 083e 5f1b bf3d
00000320: 8a77 cf3d 58fb 0b3e c1e7 2e3e 378a 833d
00000330: ea82 00be a032 a1be 4197 2abd d1ac 8ebe
00000340: ba89 b3be f573 383c b919 54be 54d3 82be
00000350: 3fe5 9dbe 1d83 85be 9fe2 a4bd 9aca 42be
00000360: 73eb 6bbe 5ac7 a8be c69b 53be d026 363d
00000370: f8b3 c33c 77cf c2bc a59b 85be fc2f 84be
00000380: 8d53 d1be 14b6 4ebe fda5 7abc beec 08be
00000390: 5bf8 07be d291 5abe 9600 48be 551a 20be
000003a0: f633 b13a e7c6 2ebd 5ec1 34be a2da 06be
000003b0: 8f3d 20be 910f fdbd 117a cebd 36c4 05bd
000003c0: 4963 0a3d 6979 83bd ab0c 03bd b77a 36bd
000003d0: 63fd fb3c 0dee 18bc c921 bd3c 2ec2 983d
000003e0: 716d 0fbb 0e37 bd3a 8eb9 7e3d 3b4a 8d3d
000003f0: 8118 193e 89fe d63d 73d3 b73c efa2 a13a

block1.3.weight f4 [16]
1.0981975 0.95719045 0.975272 1.0571457 0.9555768 1.0883385 1.0099841 0.9460599
0.99579585 0.97562253 0.9828327 1.1330892 1.0638828 1.0378896 0.7484154 0.78999406
00000000: bc91 8c3f 6f0a 753f 6dab 793f 8d50 873f
00000010: aea0 743f ad4e 8b3f 2947 813f fb30 723f
00000020: 7aec 7e3f 66c2 793f ec9a 7b3f 1109 913f
00000030: 502d 883f 91d9 843f 2798 3f3f 0d3d 4a3f

block1.3.bias f4 [16]
-0.18023118 -0.077251196 -0.070077375 -0.016975919 -0.06069267 -0.1282393 -0.18550645 0.04560154
0.06790429 -0.066049576 -0.013406774 -0.21004008 -0.1224976 0.15371914 -0.013519206 -0.02479937
00000000: 868e 38be e035 9ebd ba84 8fbd 1511 8bbc
00000010: e198 78bd 2a51 03be 67f5 3dbe aec8 3a3d
00000020: 6811 8b3d 0045 87bd 16a8 5bbc bf14 57be
00000030: 06e0 fabd 8d68 1d3e a97f 5dbc 0c28 cbbc

block1.3.running_mean f4 [16]
-0.0017087462 -0.006907645 0.028174039 0.010836622 -0.00018178305 -0.0069403104 0.013583254 -0.021021562
-0.0020649226 -0.04029022 -0.0039727464 -0.014268431 0.030467901 -0.14340398 -0.016269771 -0.025766762
00000000: 02f8 dfba 8759 e2bb 3ecd e63c 168c 313c
00000010: 049d 3eb9 8b6b e3bb 4c8c 5e3c 6935 acbc
00000020: a753 07bb 5c07 25bd d02d 82bb 23c6 69bc
00000030: d297 f93c 7ed8 12be 2f48 85bc d114 d3bc

block1.3.running_var f4 [16]
19.205673 24.861588 20.346468 13.533732 17.606436 26.789398 26.343807 10.723274
13.661221 15.229266 53.79832 17.017012 31.622583 24.626192 18.902561 42.16631
00000000: 38a5 9941 88e4 c641 91c5 a241 2b8a 5841
00000010: fbd9 8c41 b050 d641 1ec0 d241 8892 2b41
00000020: 5c94 5a41 13ab 7341 7b31 5742 d722 8841
00000030: 0dfb fc41 7102 c541 7238 9741 4daa 2842

block2.0.weight f4 [16, 16, 1, 16]
-0.100337185 -0.20087984 -0.23397306 -0.18030944 -0.14338562 -0.083068945 -0.10263002 -0.16106226
-0.04868951 -0.1078211 -0.046014875 -0.06720798 -0.109824665 -0.10849413 -0.16957851 -0.122016095
-0.12315514 -0.07691368 -0.100591905 -0.15162832 -0.19811916 -0.1946559 -0.1862762 -0.18939762
-0.25699878 -0.13885695 -0.14182383 -0.118890494 -0.05212361 -0.00876416 0.023913076 0.090107605
-0.06038541 -0.06742247 0.013410817 -0.07149142 -0.07840426 0.007416023 -0.020644061 0.075941354
0.09963484 0.12708585 0.134956 0.1664476 0.13148619 0.04704085 0.059912954 0.07372396
-0.30491078 -0.37470993 -0.32106015 -0.26109606 -0.22188126 -0.2108446 -0.20809868 -0.2046958
-0.23296966 -0.19513114 -0.24208899 -0.23098615 -0.17009085 -0.15035582 -0.08634075 -0.045506228
0.054271575 0.09088262 0.09032685 0.08832336 0.058644436 0.047718227 0.04236075 0.043943148
0.031028053 -0.04885976 -0.018258927 -0.019360159 -0.052970484 -0.09513153 -0.0732954 -0.07831982
-0.1403903 -0.12307312 -0.13313106 -0.1406123 -0.070132405 -0.07487217 -0.12047006 -0.07304394
-0.0074212556 0.01686103 0.059064206 0.024945326 0.08667887 0.10799456 0.074535 0.094725125
-0.07269599 -0.04528695 -0.09406249 0.0464303 0.0129525475 0.029615445 0.055802874 0.06768832
0.074765794 0.15216476 0.030896138 0.08307755 0.041258894 0.051796384 0.0026920473 -0.024680255
0.035305876 0.04831403 0.07798533 0.07652677 0.047906462 0.06953516 0.06738313 0.063763216
0.028637657 0.07983525 0.11491469 0.008689359 0.037098344 -0.072797894 -0.025626205 -0.022638945
-0.07858738 -0.051499564 -0.067117244 -0.027797896 -0.05292693 -0.12240946 -0.1207011 -0.067715295
-0.08409046 -0.09456753 -0.11088066 -0.08967233 -0.049501006 0.012052462 0.0025169165 -0.07983503
-0.038596272 -0.106568255 -0.10239605 -0.10984769 -0.11074717 -0.059566937 -0.0180013 -0.03351917
0.017407456 -0.008548838 0.0168985 -0.00065347896 -0.035899002 0.034411676 -0.02057176 -0.017069235
-0.0035806661 0.00774536 0.07490349 0.05645266 -0.03198066 -0.049201164 0.025792802 -0.021098476
0.044499844 -0.018281518 0.06793081 0.033313405 0.053092875 0.16332859 0.15773003 0.16185822
-0.11934761 -0.06985236 -0.050137512 -0.13553731 -0.1647117 -0.11724231 -0.18566704 -0.10233202
-0.019930987 0.050059553 0.06484779 0.042849455 -0.02104487 -0.021806546 -0.03000199 -0.07446647
-0.0988592 -0.15971558 -0.16531128 -0.18331926 -0.1450396 -0.1411594 -0.12144325 -0.044606496
-0.045295715 -0.01689187 0.028744161 -0.004837598 -0.0026264873 0.032603286 0.013756382 0.0831281
-0.08646719 -0.09489299 -0.0049860557 -0.05574511 -0.07794834 0.00049859757 -0.008755955 -0.04111958
-0.059076734 0.000525912 -0.0038422458 -0.07860073 -0.047261175 -0.015745565 -0.0337605 -0.09176794
0.014312788 -0.026917249 -0.027051259 -0.05241171 -0.12373724 -0.06495717 -0.08659543 -0.06862729
-0.029099975 0.007767571 0.1033131 0.12674809 0.1663484 0.14594276 0.10682438 0.10177428
-0.003024567 -0.0022354852 0.069709554 0.035577893 -0.030428156 0.014663493 -0.13507013 -0.1459248
-0.2277274 -0.17199449 -0.25379857 -0.24747448 -0.16998923 -0.1255107 -0.1248189 -0.09283695
00000000: 957d cdbd 72b3 4dbe a296 6fbe 0aa3 38be
00000010: aed3 12be 0d20 aabd b02f d2bd 81ed 24be
00000020: a76e 47bd 4fd1 dcbd 187a 3cbd 56a4 89bd
00000030: c1eb e0bd 2c32 debd fda5 2dbe 93e3 f9bd
00000040: c338 fcbd eb84 9dbd 2103 cebd 7444 1bbe
00000050: c0df 4abe e053 47be 30bf 3ebe 73f1 41be
00000060: 5895 83be 8430 0ebe 443a 11be dc7c f3bd
00000070: 917f 55bd 8d97 0fbc 5be5 c33c 568a b83d
00000080: b156 77bd cb14 8abd 0bb9 5b3c 186a 92bd
00000090: 6a92 a0bd 1c02 f33b bc1d a9bc 2487 9b3d
000000a0: 5a0d cc3d cb22 023e e831 0a3e 3d71 2a3e
000000b0: 51a4 063e e8ad 403d 4967 753d 96fc 963d
000000c0: 441d 9cbe fbd9 bfbe ff61 a4be 62ae 85be
000000d0: d734 63be a6e7 57be d217 55be c79b 51be
000000e0: 998f 6ebe 75d0 47be 2de6 77be a287 6cbe
000000f0: 4c2c 2ebe e0f6 19be 6bd3 b0bd bd64 3abd
00000100: df4b 5e3d ab20 ba3d 49fd b83d e1e2 b43d
00000110: 2635 703d 3074 433d 7782 2d3d bbfd 333d
00000120: 8b2e fe3c 2c21 48bd bf93 95bc 3299 9ebc
00000130: 94f7 58bd 52d4 c2bd e61b 96bd 2466 a0bd
00000140: 7ac2 0fbe c30d fcbd 8253 08be acfc 0fbe
00000150: 94a1 8fbd 9556 99bd 02b9 f6bd 1098 95bd
00000160: 012e f3bb 2520 8a3c 4fed 713d 245a cc3c
00000170: b184 b13d 402c dd3d cea5 983d 3fff c13d
00000180: a3e1 94bd cf7e 39bd d6a3 c0bd b32d 3e3d
00000190: ec36 543c 179c f23c 8e91 643d 2da0 8a3d
000001a0: cf1e 993d 14d1 1b3e e619 fd3c 9024 aa3d
000001b0: 16ff 283d 7228 543d 0f6d 303b 3f2e cabc
000001c0: e59c 103d efe4 453d c6b6 9f3d 11ba 9c3d
000001d0: 9139 443d 7368 8e3d 2b00 8a3d 4a96 823d
000001e0: 8599 ea3c aa80 a33d 6558 eb3d d05d 0e3c
000001f0: 6ff4 173d 1017 95bd 0cee d1bc 4f75 b9bc
00000200: 6cf2 a0bd 35f1 52bd c474 89bd 6ab8 e3bc
00000210: e9c9 58bd d0b1 fabd 2332 f7bd 51ae 8abd
00000220: 9e37 acbd 9fac c1bd 6615 e3bd 20a6 b7bd
00000230: 91c1 4abd b177 453c daf2 243b 8c80 a3bd
00000240: 2017 1ebd 7540 dabd 05b5 d1bd d3f7 e0bd
00000250: 6acf e2bd 76fc 73bd 7677 93bc 664b 09bd
00000260: 159a 8e3c 6d10 0cbc b96e 8a3c 3b4e 2bba
00000270: d50a 13bd 42f3 0c3d 1c86 a8bc c8d4 8bbc
00000280: 9ca9 6abb cacc fd3b 0067 993d e83a 673d
00000290: 27fe 02bd 2987 49bd 6d4b d33c b6d6 acbc
000002a0: 7845 363d 1fc3 95bc 4f1f 8b3d a373 083d
000002b0: ea77 593d 9c3f 273e fb83 213e 29be 253e
000002c0: 856c f4bd c10e 8fbd fe5c 4dbd 4bca 0abe
000002d0: 2faa 28be bc1c f0bd 801f 3ebe 7393 d1bd
000002e0: 4f46 a3bc 3f0b 4d3d ebce 843d e982 2f3d
000002f0: 4b66 acbc a4a3 b2bc bcc6 f5bc e081 98bd
00000300: b176 cabd 7b8c 23be 5c47 29be 0bb8 3bbe
00000310: 4385 14be 178c 10be 3db7 f8bd 4db5 36bd
00000320: 0088 39bd d260 8abc e078 eb3c b784 9ebb
00000330: 2521 2cbb 068b 053d 7362 613c 113f aa3d
00000340: b615 b1bd 4257 c2bd 1162 a3bb fc54 64bd
00000350: 61a3 9fbd 51b4 023a 2375 0fbc 016d 28bd
00000360: 72fa 71bd 5bdd 093a 30ce 7bbb 6bf9 a0bd
00000370: ef94 41bd d8fc 80bc 7348 0abd d4f0 bbbd
00000380: 2f80 6a3c 9081 dcbc 9a9a ddbc a9ad 56bd
00000390: f369 fdbd 4408 85bd f258 b1bd 778c 8cbd
000003a0: 1263 eebc 1c87 fe3b d295 d33d 40ca 013e
000003b0: 3c57 2a3e 0572 153e bec6 da3d 096f d03d
000003c0: d037 46bb 3881 12bb e2c3 8e3d 20ba 113d
000003d0: 7844 f9bc 263f 703c d34f 0abe 506d 15be
000003e0: 5f31 69be 531f 30be e3f1 81be f369 7dbe
000003f0: a811 2ebe e085 00be 0da1 ffbd 4d21 bebd

block2.1.weight f4 [16]
1.7782108 1.6981888 1.8172348 1.7637748 1.7941701 1.9259765 1.7993954 1.6705953
1.7782007 1.8213371 1.7638003 1.9523976 1.8178796 1.6868563 1.8772793 1.7784263
00000000: 699c e33f 405e d93f 269b e83f 5fc3 e13f
00000010: 5ea7 e53f 6686 f63f 9752 e63f 11d6 d53f
00000020: 159c e33f 9321 e93f 35c4 e13f 2ae8 f93f
00000030: 47b0 e83f e8ea d73f b04a f03f 79a3 e33f

block2.1.bias f4 [16]
0.27123106 0.26533836 0.3617245 0.45149174 0.35519344 0.4315213 0.42350104 0.2872639
0.35844368 0.53117436 0.55356425 0.4384503 0.31608513 0.310471 0.38142708 0.3710975
00000000: ccde 8a3e 6eda 873e f433 b93e ed29 e73e
00000010: eadb b53e 5cf0 dc3e 21d5 d83e 4114 933e
00000020: ee85 b73e 0bfb 073f 63b6 0d3f 8f7c e03e
00000030: e9d5 a13e 0ef6 9e3e 694a c33e 7e00 be3e

block2.1.running_mean f4 [16]
-1.2326272 0.3728506 -0.8357424 0.63847613 -0.042657617 -0.6152465 0.86355424 -1.088157
1.1963716 -0.926094 -0.34211388 -0.032814294 1.6349149 0.008127715 0.07273868 -0.0031346441
00000000: bac6 9dbf 46e6 be3e 37f3 55bf 2c73 233f
00000010: c1b9 2ebd cb80 1dbf e411 5d3f bb48 8bbf
00000020: b422 993f 7f14 6dbf 8d29 afbe 4868 06bd
00000030: e444 d13f 1c2a 053c 04f8 943d 9a6e 4dbb

block2.1.running_var f4 [16]
22.34804 29.412172 27.306583 24.132011 24.592995 22.782183 19.162926 25.138893
26.780159 21.374115 25.07292 35.976646 23.47763 26.609444 29.682669 22.285728
00000000: c9c8 b241 214c eb41 e273 da41 5c0e c141
00000010: 74be c441 e941 b641 ac4d 9941 741c c941
00000020: c43d d641 30fe aa41 5795 c841 16e8 0f42
00000030: 30d2 bb41 24e0 d441 1b76 ed41 2c49 b241

dense.weight f4 [1854, 128]
-0.20217465 -0.17829943 -0.26787934 -0.1063534 -0.19164674 -0.09105394 -0.15795353 -0.18564504
-0.108213626 -0.103763215 -0.13880205 -0.07825828 -0.18058316 -0.16218573 -0.1981606 -0.16066076
-0.3011822 -0.04792997 -0.12540159 -0.23078993 -0.1832662 -0.18043897 -0.17559679 -0.28540072
-0.0883263 -0.25956964 -0.19713531 -0.17990135 -0.2395624 -0.25248018 -0.14650519 -0.0947701
-0.16463721 -0.05042229 -0.15105154 -0.1730228 -0.096721806 -0.10513123 -0.20555575 -0.20721404
-0.36234224 -0.24409838 -0.03042527 -0.06288622 -0.0938924 -0.110342816 -0.20670721 -0.1023962
-0.16831654 -0.14687192 -0.23570658 -0.20173986 -0.18159524 -0.21473022 -0.032062307 -0.16302997
-0.21115914 -0.15296817 -0.275472 -0.12478277 -0.21228518 -0.121656366 -0.13046934 -0.17390506
-0.1172604 -0.18780532 -0.118130974 -0.0776348 -0.11709969 -0.009743861 -0.01957986 -0.2260596
-0.25593457 -0.17583488 -0.26768735 -0.2632884 -0.36188668 -0.045903362 -0.17872056 -0.18984151
-0.22504637 -0.22009437 -0.2809734 -0.19642057 -0.088988975 -0.09967482 -0.1761874 -0.22558759
-0.113872476 -0.12445342 -0.07487866 -0.14111403 -0.1271606 -0.118101195 -0.14634223 -0.12321127
-0.09083378 -0.030954951 -0.19036756 -0.118697755 -0.13648906 -0.15637034 -0.20794153 -0.18530676
-0.16812173 -0.05529107 -0.18727371 -0.16373199 -0.12550084 -0.10512057 -0.21640922 -0.12156007
-0.05274641 -0.075225055 -0.23242714 -0.203219 -0.16366842 -0.08926506 -0.21527684 -0.13111919
-0.20546393 -0.16581967 -0.22849374 -0.20028237 -0.060495164 -0.08927255 -0.03070756 -0.2152484
-0.22439636 -0.24323256 -0.20314449 -0.18718246 -0.16532165 -0.09456136 -0.3078102 -0.07250654
-0.12077493 -0.10342849 -0.19249168 -0.13154162 -0.17580728 -0.1979263 -0.18417953 -0.25388438
-0.21101572 -0.115278505 -0.23773435 -0.15568048 -0.20951921 -0.14223072 -0.20240833 -0.09866786
-0.120590486 -0.2712954 -0.11694253 -0.25270233 -0.15751778 -0.19580778 -0.20708479 -0.1686168
-0.18858185 -0.17863329 -0.21950215 -0.26927912 -0.22373798 -0.093103774 -0.13758552 -0.17215562
-0.22844471 -0.1946491 -0.056544177 -0.17257254 -0.12983418 -0.16167085 -0.20034565 -0.17365065
-0.13101158 -0.16739598 -0.0662684 -0.1359041 -0.109783426 -0.07931031 -0.123213775 -0.09976783
-0.17913496 -0.27023238 -0.21524265 -0.1756877 -0.25839853 -0.18037453 -0.098200254 -0.13797459
-0.18122384 -0.113771826 -0.18451224 -0.17679289 -0.09426016 -0.16558294 -0.08475623 -0.23522955
-0.18359081 -0.21521908 -0.24183589 -0.18164016 -0.23148936 -0.18021305 -0.1611918 -0.22698009
-0.19886026 -0.28773704 -0.19377066 -0.16388072 -0.26152244 -0.15008189 -0.29057786 -0.20965602
-0.21158215 -0.176077 -0.19926798 -0.21215354 -0.19972865 -0.10474655 -0.24247713 -0.24291515
-0.1724836 -0.22527878 -0.19967365 -0.16790761 -0.110320985 -0.12659024 -0.14839798 -0.14603113
-0.04225371 -0.16252843 -0.20682988 -0.2042742 -0.118571505 -0.04334453 -0.1417117 -0.16506022
-0.21673293 -0.18643814 -0.1662639 -0.17692597 -0.15524098 -0.11546273 -0.244307 -0.20589305
-0.2044955 -0.13730678 -0.16286862 -0.24173166 -0.16542052 -0.10409777 -0.20278235 -0.104299136
00000000: df06 4fbe 2094 36be 7b27 89be d0cf d9bd
00000010: 0b3f 44be 7d7a babd 92be 21be bc19 3ebe
00000020: 1b9f ddbd cf81 d4bd 2022 0ebe e145 a0bd
00000030: cbea 38be 0414 26be 9dea 4abe 4184 24be
00000040: 8e34 9abe 3752 44bd 4669 00be 3254 6cbe
00000050: 22aa 3bbe fec4 38be a5cf 33be 0b20 92be
00000060: 6be4 b4bd 50e6 84be d7dd 49be 0f38 38be
00000070: d94f 75be 1545 81be 7505 16be d416 c2bd
00000080: a896 28be 9a87 4ebd 41ad 1abe e42c 31be
00000090: 1516 c6bd 0b4f d7bd 357d 52be eb2f 54be
000000a0: ec84 b9be edf4 79be 6a3e f9bc 7eca 80bd
000000b0: a94a c0bd 6afb e1bd 0eab 53be 19b5 d1bd
000000c0: 2c5b 2cbe 9865 16be 115d 71be e594 4ebe
000000d0: 1af4 39be 3de2 5bbe c453 03bd 54f1 26be
000000e0: 1a3a 58be b0a3 1cbe aa0a 8dbe 1c8e ffbd
000000f0: 4961 59be f926 f9bd c199 05be 2b14 32be
00000100: 3826 f0bd 0a50 40be a7ee f1bd fefe 9ebd
00000110: f6d1 efbd b7a4 1fbc f165 a0bc 2b7c 67be
00000120: db09 83be 0f0e 34be 510e 89be bdcd 86be
00000130: 3649 b9be 2a05 3cbd 8602 37be d065 42be
00000140: 8e72 66be 6b60 61be bfdb 8fbe 7922 49be
00000150: da3f b6bd 5022 ccbd 786a 34be 6f00 67be
00000160: f935 e9bd 6fe1 febd fc59 99bd 3280 10be
00000170: 6336 02be 0adf f1bd bdda 15be 3156 fcbd
00000180: 1007 babd 3d95 fdbc b7ef 42be cf17 f3bd
00000190: cac3 0bbe 8c1f 20be a0ee 54be 0ec1 3dbe
000001a0: 1a28 2cbe e478 62bd aec4 3fbe 5ca9 27be
000001b0: 4b83 00be 7449 d7bd 619a 5dbe 7cf4 f8bd
000001c0: 9f0c 58bd 980f 9abd 6101 6ebe a418 50be
000001d0: b298 27be 9ad0 b6bd 8871 5cbe 1c44 06be
000001e0: 2365 52be a2cc 29be 43fa 69be d216 4dbe
000001f0: c7c9 77bd 87d4 b6bd 6c8e fbbc 146a 5cbe
00000200: 29c8 65be f511 79be 1c05 50be c2ac 3fbe
00000210: 144a 29be 63a9 c1bd 4c99 9dbe 4f7e 94bd
00000220: d958 f7bd 51d2 d3bd 8a1c 45be d9b2 06be
00000230: d306 34be 31ad 4abe 8f99 3cbe 22fd 81be
00000240: 8114 58be 2317 ecbd a270 73be b46a 1fbe
00000250: 348c 56be eea4 11be 2144 4fbe 6012 cabd
00000260: 25f8 f6bd 3be7 8abe 917f efbd 3362 81be
00000270: 574c 21be d681 48be 090e 54be e2a9 2cbe
00000280: 9a1b 41be a5eb 36be 2cc5 60be f4de 89be
00000290: 921b 65be 31ad bebd 38e3 0cbe 9049 30be
000002a0: 69ed 69be 1852 47be de9a 67bd dbb6 30be
000002b0: 40f3 04be 0b8d 25be 6927 4dbe 7ad1 31be
000002c0: e627 06be da69 2bbe bab7 87bd 722a 0bbe
000002d0: 22d6 e0bd 726d a2bd 8157 fcbd 1353 ccbd
000002e0: 286f 37be e65b 8abe 9268 5cbe 7ae7 33be
000002f0: d04c 84be 1ab4 38be 371d c9bd 3649 0dbe
00000300: be92 39be 3401 e9bd c7f0 3cbe 3209 35be
00000310: 790b c1bd 938e 29be ad94 adbd 04e0 70be
00000320: 3bff 3bbe 6462 5cbe d4a3 77be e1ff 39be
00000330: 8c0b 6dbe c589 38be 770f 25be 786d 68be
00000340: 06a2 4bbe 4552 93be d16b 46be 59d0 27be
00000350: 45e6 85be 11af 19be 9fc6 94be 11b0 56be
00000360: fea8 58be 874d 34be e80c 4cbe c73e 59be
00000370: ab85 4cbe 5c85 d6bd ed4b 78be c0be 78be
00000380: 8a9f 30be 7baf 66be 4077 4cbe f9ef 2bbe
00000390: f8ef e1bd dfa0 01be a4f5 17be 2f89 15be
000003a0: 3a12 2dbd da6d 26be 36cb 53be 422d 51be
000003b0: 9ed5 f2bd 098a 31bd df1c 11be 8c05 29be
000003c0: 3def 5dbe a4e9 3ebe 1541 2abe 152c 35be
000003d0: 7ef7 1ebe b977 ecbd 9d2b 7abe a1d5 52be
000003e0: 4567 51be 269a 0cbe 08c7 26be 8188 77be
000003f0: ff63 29be 3631 d5bd 2da6 4fbe c99a d5bd

dense.bias f4 [1854]
-0.36078647 -0.24524702 -0.29460314 -0.1905476 -0.23307769 -0.18634611 -0.25995037 -0.33876008
-0.2631978 -0.06776304 -0.3710255 -0.27178112 0.20601925 -0.26676342 -0.28330103 -0.31357703
0.027888577 -0.31270903 -0.24938749 -0.23683077 -0.3199139 -0.22634709 -0.31463847 -0.3712326
-0.28274167 -0.25586525 -0.30036214 -0.31756192 -0.35935882 -0.2330098 -0.32165876 -0.20606747
-0.3190493 -0.2565364 -0.21755105 -0.25434113 -0.32236105 -0.20256379 -0.22077787 -0.24411258
-0.28333205 -0.2337766 -0.32883596 -0.1778856 -0.40621236 0.14833456 -0.17242017 -0.26962322
-0.24324718 -0.3798894 -0.24736694 -0.32716718 -0.23167807 -0.23946221 -0.21089089 0.1921878
-0.34407717 -0.27845657 -0.24461219 -0.23071654 -0.006648104 -0.3108077 0.14068452 0.13723066
-0.3021253 -0.33844867 -0.28208545 -0.33874017 -0.3119919 -0.3981372 -0.2858524 -0.3032945
-0.27399305 -0.28112066 -0.29590562 -0.28746375 -0.15324368 -0.2815278 -0.22771579 -0.25444293
-0.23642863 -0.32060468 -0.34062067 -0.19395159 -0.34475493 0.059059013 -0.21545482 -0.24241662
-0.28888607 -0.2956998 -0.37184843 -0.37067357 -0.28375402 -0.29624993 -0.2961221 -0.22928225
-0.20563415 0.2555184 -0.29097635 0.16521898 -0.2137922 -0.3319723 0.224096 -0.39861673
-0.385406 0.18881294 -0.19675274 0.15357326 -0.082354076 -0.1781655 -0.25339958 0.04065268
-0.36102274 -0.17392783 -0.25016195 0.093586154 -0.14833975 -0.20689154 -0.30108526 -0.2852526
-0.15382688 -0.2571498 -0.2141535 -0.14065415 -0.2449314 -0.2617117 -0.21681952 -0.25298995
-0.32382458 -0.2852614 -0.3046144 -0.30214554 -0.3157804 -0.044517405 -0.37966582 -0.3219977
-0.24714704 -0.28727746 -0.27012646 -0.30270585 -0.12741064 -0.23514909 -0.31534216 -0.34264207
-0.23554401 -0.23374766 -0.23321004 -0.3045887 0.029624531 -0.20639078 -0.19221008 -0.18895315
-0.30662194 -0.3907859 -0.13084637 -0.00030939738 -0.34528968 -0.37320533 -0.30886474 -0.2479224
-0.31741372 -0.3069623 -0.35044292 -0.27869308 -0.19375557 -0.39469242 -0.3578893 -0.19728805
-0.32698083 -0.33561134 -0.23054574 -0.24096508 -0.31891677 -0.34205815 -0.27133328 -0.30956197
-0.39186674 -0.29976934 -0.24523208 -0.25317302 -0.1963223 -0.20928034 -0.039258853 -0.3100869
-0.34494764 -0.3533658 -0.13184428 -0.2495911 -0.34372073 -0.2857038 -0.3768797 -0.21252476
-0.30938247 -0.14767435 -0.2971606 -0.20351712 -0.20357873 -0.21342859 -0.43034226 -0.35448572
-0.23289277 0.095643 -0.31842518 -0.2642852 0.057784893 -0.020932788 -0.11936378 -0.26604974
-0.31062436 -0.3404171 -0.21609175 -0.38839218 -0.2789895 -0.28287506 -0.2448633 0.10807899
-0.2017086 -0.2440481 -0.3230251 -0.3441975 -0.26475757 -0.19310161 -0.37309584 -0.28550377
-0.24565355 -0.2612786 -0.36106434 -0.20925957 -0.33727968 0.06662331 -0.25989282 -0.18969724
0.06455024 -0.32095227 -0.3018269 -0.31740257 -0.35353988 -0.26642805 -0.20641187 -0.24331109
-0.264665 -0.31344596 -0.25945032 -0.3447492 -0.2991947 -0.095912434 -0.31969488 -0.30095625
-0.3448377 -0.30081046 -0.24291152 -0.34903136 -0.102210574 -0.38278145 -0.23068297 -0.15461606
00000000: 01b9 b8be 0922 7bbe 39d6 96be e91e 43be
00000010: ebab 6ebe 84d1 3ebe 3718 85be f671 adbe
00000020: ddc1 86be 59c7 8abd 0ef7 bdbe e526 8bbe
00000030: b6f6 523e 3795 88be d50c 91be 2b8d a0be
00000040: 9676 e43c 661b a0be 6f5f 7fbe c483 72be
00000050: c1cb a3be 88c7 67be 4b18 a1be 3312 bebe
00000060: 84c3 90be c500 83be 11c9 99be 7a97 a2be
00000070: e1fd b7be 1f9a 6ebe 75b0 a4be 5a03 53be
00000080: 6e5a a3be bd58 83be b4c5 5ebe 0039 82be
00000090: 820c a5be e26c 4fbe 9813 62be a6f8 79be
000000a0: e610 91be 2263 6fbe 305d a8be a527 36be
000000b0: 11fb cfbe 04e5 173e ea8e 30be 0e0c 8abe
000000c0: ca15 79be dd80 c2be c24d 7dbe 7582 a7be
000000d0: 043d 6dbe 9535 75be c8f3 57be e1cc 443e
000000e0: e22a b0be dc91 8ebe 9e7b 7abe f540 6cbe
000000f0: 57d8 d9bb 3022 9fbe 9a0f 103e 3286 0c3e
00000100: 2bb0 9abe 2549 adbe 816d 90be 5a6f adbe
00000110: 67bd 9fbe a4d8 cbbe 3f5b 92be 6b49 9bbe
00000120: d148 8cbe 0cef 8fbe f180 97be 732e 93be
00000130: e9eb 1cbe 6924 90be 542e 69be 5846 82be
00000140: 591a 72be 4c26 a4be d565 aebe 3f9b 46be
00000150: b883 b0be dde7 713d 30a0 5cbe 103c 78be
00000160: e0e8 93be f765 97be eb62 bebe edc8 bdbe
00000170: 3548 91be 12ae 97be 519d 97be f7c8 6abe
00000180: c291 52be 4fd3 823e dafa 94be 2a2f 293e
00000190: 58ec 5abe 46f8 a9be 6c79 653e 7e17 ccbe
000001a0: ef53 c5be 2e58 413e 8d79 49be 4f42 1d3e
000001b0: 41a9 a8bd 0471 36be 97bd 81be 6d83 263d
000001c0: f9d7 b8be 231a 32be 3a15 80be 19aa bf3d
000001d0: 60e6 17be 60db 53be d927 9abe a10c 92be
000001e0: cb84 1dbe 23a9 83be 0e4b 5bbe a407 10be
000001f0: 4ccf 7abe 13ff 85be f005 5ebe e687 81be
00000200: 56cc a5be c80d 92be 6bf6 9bbe d2b2 9abe
00000210: f8ad a1be e257 36bd 8f63 c2be e2dc a4be
00000220: 1d14 7dbe 0816 93be 044e 8abe 43fc 9abe
00000230: ef77 02be ecca 70be 8774 a1be c86e afbe
00000240: 7332 71be 8c5b 6fbe 9dce 6ebe 0df3 9bbe
00000250: 25af f23c 1b58 53be b8d2 44be ef7c 41be
00000260: 8dfd 9cbe 1715 c8be 97fc 05be 9d36 a2b9
00000270: cfc9 b0be c514 bfbe 8523 9ebe 5fdf 7dbe
00000280: 0d84 a2be 2a2a 9dbe 416d b3be dcb0 8ebe
00000290: dc67 46be 2015 cabe 443d b7be e105 4abe
000002a0: 086a a7be 40d5 abbe 2f14 6cbe 8dbf 76be
000002b0: 0f49 a3be 3f22 afbe 32ec 8abe e87e 9ebe
000002c0: c2a2 c8be 5e7b 99be 1e1e 7bbe e59f 81be
000002d0: b708 49be 964d 56be e4cd 20bd b6c3 9ebe
000002e0: fa9c b0be 5dec b4be 3002 07be cf94 7fbe
000002f0: 2afc afbe c547 92be 60f6 c0be 17a0 59be
00000300: 6167 9ebe f237 17be 6f25 98be cb66 50be
00000310: f176 50be 068d 5abe d255 dcbe 277f b5be
00000320: 717b 6ebe 7ae0 c33d a008 a3be 6450 87be
00000330: daaf 6c3d 3d7b abbc ff74 f4bd ac37 88be
00000340: 280a 9fbe 264b aebe 2847 5dbe 57db c6be
00000350: b6d7 8ebe 00d5 90be 72bd 7abe 8458 dd3d
00000360: b38c 4ebe bfe7 79be 8c63 a5be a83a b0be
00000370: 4e8e 87be 6ebc 45be 6b06 bfbe 8d2d 92be
00000380: 9b8c 7bbe 4fc6 85be 6ddd b8be 2448 56be
00000390: ecaf acbe cd71 883d ac10 85be fe3f 42be
000003a0: eb32 843d db53 a4be 0e89 9abe 9782 a2be
000003b0: 2e03 b5be 4269 88be a25d 53be 8b26 79be
000003c0: 2c82 87be fd7b a0be acd6 84be f882 b0be
000003d0: 0c30 99be bd6d c4bd 0caf a3be f016 9abe
000003e0: 918e b0be d403 9abe ccbd 78be 3db4 b2be
000003f0: c753 d1bd eefb c3be 2838 6cbe ac53 1ebe
